simple_nn_checkpoint.pth (torch, 4536 bytes, 3 tensors)

fc1.weight f4 [50, 10]
000000 76 c7 0c be 79 fc c9 bd 16 27 75 3e 2d 13 7e 3e
       -0.13747963 -0.098626085 0.23940691 0.24812002
000010 e6 01 a1 3e e0 cb cc bd 36 3b 8f 3e f5 e3 37 3d
       0.3144676 -0.099998236 0.27974862 0.04489513
000020 cc 98 6d be 6c 76 1e bd 5e bf 2a 3e 54 82 69 3e
       -0.23202819 -0.038687155 0.16674563 0.22803622
000030 80 cb 3e be 87 82 af 3b b7 ac 18 be 04 87 f1 3d
       -0.18632317 0.0053561362 -0.14909635 0.1179333
000040 d9 7f 17 3e 11 66 54 3d 56 4f 81 3e de a0 71 3e
       0.14794864 0.05185515 0.2525584 0.23596522
000050 a0 e9 93 bc ac bc 84 be fb 8a 8c 3e 1c 1b 98 3d
       -0.018055737 -0.25925195 0.27449784 0.07427046
000060 fb 75 8a 3e 3d ed 8e be 4c ab 65 be 1f 8e 1e 3d
       0.27043137 -0.27915373 -0.22428626 0.038709756
000070 50 6e 92 bd f2 e1 25 bd 87 41 97 3e f4 13 ac 3d
       -0.07149947 -0.04049868 0.2954218 0.08402243
000080 92 f5 8a 3e 88 cd 1f 3d 42 8c c3 bd 38 6f ec bb
       0.2714048 0.03901437 -0.095482364 -0.0072154067
000090 ad a5 9b bd cb a3 80 be 7a e8 19 be 84 c2 92 3e
       -0.075999595 -0.25124964 -0.15030089 0.2866403
0000a0 a9 47 31 3e 87 71 97 3e 59 52 03 3e 4e 46 90 be
       0.17312492 0.29578802 0.12824382 -0.28178638
0000b0 71 6b 60 be 19 19 5e 3e be 97 2d be 1c 7a 10 bc
       -0.21915986 0.21689261 -0.16952416 -0.008818176
0000c0 e5 1b 3a bd 04 35 74 3e b2 38 62 be 6d 86 8f 3e
       -0.04543676 0.23848349 -0.2209194 0.28032246
0000d0 7a 71 ee bc 7f 47 f4 3d a2 3e 04 3e 04 db 94 be
       -0.029106844 0.11927699 0.12914518 -0.29073346
0000e0 ae d1 e0 3d e2 d0 6d be 54 fb e5 3d d1 f3 fd bd
       0.10977493 -0.23224214 0.11229578 -0.1240002
0000f0 d7 ff 0f be 62 f6 5a be 86 ed 51 3d 91 05 fd 3d
       -0.14062439 -0.2138305 0.05125191 0.12354577
000100 f4 6d ef bc fa bf bc 3d 4c 80 ed 3d 63 06 36 be
       -0.029227234 0.09216304 0.11596736 -0.17775874
000110 bf 99 94 3e 00 5d 92 be 68 4c 05 be b2 86 4d 3e
       0.2902355 -0.28586578 -0.13017428 0.20070913
000120 bd b9 91 be f4 d9 70 be 0b c8 0a bd 85 60 9b 3e
       -0.2846202 -0.23520643 -0.033882182 0.30347076
000130 1d ff 99 3b 73 49 15 3e e0 45 69 be c8 36 80 be
       0.0046996013 0.145788 -0.22780561 -0.25041795
000140 fb e5 92 3d 06 e7 08 3e 6a d9 b0 3d cb 34 87 3e
       0.071727715 0.13369378 0.086352184 0.26407465
000150 7e 6b 32 3d e7 9e 2a bd 3f 48 77 3e 74 7c c4 3c
       0.043559544 -0.041655447 0.24148653 0.023985125
000160 24 a1 e6 3d 47 da 09 be 7d 21 b8 3d 25 b1 20 be
       0.11261204 -0.13462172 0.089907624 -0.15692575
000170 51 d8 90 3d e3 5d 5b be 56 9a 49 3e 40 df 91 be
       0.07072509 -0.21422534 0.1968778 -0.2849064
000180 04 d1 0c 3e ed 55 98 bd cb 17 88 3e bc a1 8f 3e
       0.13751608 -0.07438264 0.26580653 0.2805308
000190 8c 27 45 bd f0 17 02 be fe 6e 36 3c 40 3a 91 be
       -0.048133418 -0.12704444 0.011134861 -0.28364754
0001a0 17 c3 c2 3b a9 45 1c 3d 59 91 35 be 15 96 c5 3d
       0.0059436667 0.03815237 -0.17731227 0.096477665
0001b0 5d fc 38 3e db 00 aa 3c cb 1c 2d 3c c5 49 5a be
       0.18065019 0.020752361 0.010565947 -0.21317203
0001c0 2f 6c a9 bc 61 13 ff 3d bf 2d 75 3e 76 ab 02 3e
       -0.020681469 0.12454868 0.23943232 0.1276072
0001d0 c7 2a 94 3e 34 6b 68 3c 54 92 9d bd 53 a3 0b be
       0.28938887 0.0141857155 -0.076939255 -0.13636522
0001e0 b9 a4 69 be af 04 98 bd 4a 5b 8d 3e cc 90 3d 3d
       -0.22816743 -0.07422768 0.2760871 0.046280667
0001f0 f3 8d 61 3e 27 3b 5e be 43 90 1c bc 8b 88 42 3e
       0.22026806 -0.21702252 -0.009555879 0.189974
000200 55 52 34 bd e3 8b c3 3d e9 be e8 bd 3e 74 56 3d
       -0.04402383 0.09548166 -0.11364538 0.05235695
000210 14 00 3e bd e5 6e a4 bd 35 7e ae bd eb b6 e1 3d
       -0.046386793 -0.08028964 -0.08520166 0.11021217
000220 b8 cb 9f 3e 84 a3 96 be 40 e6 2d be f3 d8 2f 3e
       0.31210113 -0.29421628 -0.16982365 0.17172603
000230 c6 43 0d 3e 31 d8 a1 bb e9 33 f1 3d 29 be 89 be
       0.13795385 -0.004939102 0.11777479 -0.26902893
000240 2c 79 12 bd 51 a9 1f 3d 7c 20 4e 3e ff be e6 3d
       -0.03576009 0.038979832 0.2012958 0.11266898
000250 9e 6e 00 be f0 0c 7a bb dc 5a 2a 3e 8b b3 89 3e
       -0.12542197 -0.0038154684 0.16636223 0.26894793
000260 ca 15 19 be 89 c0 0d bd 2a 4b 4b be 76 43 2c 3c
       -0.14949718 -0.034607444 -0.19852892 0.010514131
000270 46 87 0b 3e 93 a9 35 3e cb 69 f4 bd 60 ce 06 be
       0.13625821 0.17740469 -0.11934241 -0.13164663
000280 98 09 e4 3d 3b 92 98 be 72 77 86 bd a8 c2 34 be
       0.11134642 -0.29799065 -0.06565751 -0.1765238
000290 38 2d bb 3d 2d 99 e1 bd 94 ed 22 3e 82 5f 76 be
       0.09139484 -0.11015544 0.15910941 -0.24059871
0002a0 58 10 43 3e 54 c2 72 be ba 9c 7b 3e b2 4e 61 3c
       0.19049203 -0.23706943 0.24571505 0.013751673
0002b0 d4 41 95 3e 3f e5 9f bc 00 43 47 bd 72 a8 95 be
       0.29151785 -0.019518493 -0.04864788 -0.29230076
0002c0 e9 68 46 be 9d 6a ca 3d 9c 63 e7 bd c9 ed 72 3e
       -0.19375958 0.09883616 -0.11298296 0.2372352
0002d0 28 59 8b bc 2d 8f 23 be 88 25 95 be ca ef 8d bd
       -0.017010286 -0.15972586 -0.29130197 -0.06930502
0002e0 83 bf 34 be 89 1f f0 3d 87 f6 6e 3e 15 51 28 3c
       -0.17651181 0.11724765 0.2333623 0.010273238
0002f0 5c 4b 36 be f9 4c 78 3e 52 20 99 be 01 c5 d3 3d
       -0.17802185 0.24248113 -0.2990747 0.1034031
000300 78 3e 40 3e 0a 6d 4a be fc 9f 84 be 43 28 a1 3e
       0.1877383 -0.19768158 -0.25903308 0.3147603
000310 10 d4 84 be 79 78 53 be 35 49 6e 3d a8 1e f8 bd
       -0.2594304 -0.20651425 0.058175284 -0.12115222
000320 30 dd de bd 8c 6c 84 3d 69 8e 7c 3e cc 40 b7 bd
       -0.10882032 0.06466016 0.246637 -0.08947906
000330 bc e6 1d 3d 5f 1f 54 be 26 44 9d 3e 43 e9 e0 3d
       0.038550124 -0.20715092 0.30716056 0.10981991
000340 4e e1 3b 3e 9e 1b 53 3e 53 33 8d 3e 9e b1 fc bd
       0.18347666 0.20616004 0.2757822 -0.12338565
000350 bd 8a e7 3d e2 4f 32 3e 6f 74 61 be bc d5 76 3e
       0.11305759 0.17413285 -0.22017072 0.2410497
000360 ad 49 2a bc e4 05 82 be 07 71 23 3e 57 f3 47 3e
       -0.010393542 -0.2539512 0.15961085 0.1952642
000370 3d a9 8a 3e 6b 26 7b be fc 8b 58 3e 47 f5 42 3e
       0.27082244 -0.24526374 0.2114715 0.19038878
000380 48 ab 07 bd 67 df 73 be d9 9e 0a be cc 48 80 3e
       -0.03312233 -0.2381569 -0.13537158 0.2505554
000390 c2 91 d8 3d 3b 3b c0 bd 3b cb 8b bd 65 3c 31 3e
       0.10574676 -0.09386297 -0.068258725 0.17308195
0003a0 8c d2 d3 bd 97 f9 0e bd a8 9d 0d 3d 07 ea a3 3d
       -0.10342893 -0.034905996 0.03457418 0.080036215
0003b0 ab 38 73 be be 3f 51 3d 25 58 32 3e 8c 28 57 be
       -0.23752086 0.05108618 0.17416437 -0.21011561
0003c0 66 a6 1b 3e c1 39 c5 bc 30 80 9d 3d 2f 2e 8e 3e
       0.15200195 -0.02407539 0.076904655 0.2776961
0003d0 ad 00 9e 3e 2f 1a 39 3e c1 4b 5e 3e fd e3 6f 3a
       0.3085989 0.18076394 0.21708585 0.00091510994
0003e0 9c ef 4c 3d 66 d4 96 be d1 b5 89 3d 98 fe d0 3c
       0.050033197 -0.29458922 0.06724132 0.025512025
0003f0 07 13 5e be 17 e1 80 3e dd a9 9f be af bd 89 3e
       -0.21686946 0.2517173 -0.31184283 0.2690253

fc1.bias f4 [50]
000000 80 e3 ed b9 a6 3c 7e 3e f7 50 93 ba 78 29 7d 3e
       -0.00045373663 0.24827823 -0.0011239339 0.2472285
000010 e4 88 7b 3e d1 70 39 be 45 6c 8e 3e 6e bb 90 3e
       0.24563938 -0.18109442 0.27816978 0.28267998
000020 51 53 43 3e 87 ac 42 3e 3a 95 84 be 85 c3 54 3e
       0.19074751 0.19011126 -0.258951 0.2077771
000030 5e 4d 1f be ba 4c 1c be 15 e8 9b be 11 80 a1 be
       -0.15556857 -0.15263644 -0.30450502 -0.3154302
000040 c7 20 45 3c e1 40 8b be 31 08 27 bd 55 cd 9b be
       0.0120317405 -0.27197936 -0.040779296 -0.30430093
000050 a6 c4 ef 3d c7 d1 88 be 0f 15 7d be 84 a3 90 3e
       0.117074296 -0.26722547 -0.24715064 0.28249753
000060 72 ee 3e be 80 45 9e be 87 2c a2 be c5 6f 70 3d
       -0.18645647 -0.309124 -0.31674597 0.05870034
000070 44 a8 6d be 47 e8 4f 3e 7e 39 b6 bd 2e 5a 80 3e
       -0.2320872 0.2030345 -0.088976845 0.25068802
000080 06 8d 55 be b4 9d cf 3d 87 b7 68 3d 75 23 84 bd
       -0.20854577 0.10137501 0.05681565 -0.064520754
000090 5b 09 1a 3e ab ea 84 bd 91 ae 36 be db 9a c7 bd
       0.15042631 -0.06490072 -0.1784003 -0.09746333
0000a0 1a 3e a9 3d f0 2b 12 3e b9 a6 44 3e 6c f4 49 be
       0.08263798 0.14274573 0.19204225 -0.19722146
0000b0 16 6e f6 bd b2 12 92 3e 5a ad 8e 3d b7 a6 38 be
       -0.12032716 0.28529888 0.06966658 -0.18032347
0000c0 e3 da eb 3d 6d e6 80 3e
       0.11516359 0.251758

fc2.weight f4 [1, 50]
000000 a3 64 20 3d 85 60 10 3d 4f 19 85 bd 31 91 8a bb
       0.039158475 0.0352483 -0.06498968 -0.004228734
000010 46 c5 0d be ff 1c 83 3c 09 ac c6 3d 76 3e a5 bd
       -0.13844785 0.016005037 0.09700782 -0.08068554
000020 e7 88 02 3e 2f c9 8d bd 35 a4 0d bc 3e bc 9a bd
       0.12747537 -0.06923138 -0.008645107 -0.075554356
000030 2b 8c 89 bc 4a 93 a0 bc c5 09 59 3d 80 ca de 3d
       -0.01679047 -0.019601483 0.052987833 0.108784676
000040 ca cf b1 3d 98 91 81 3d 7c 62 8a 3c 78 6e 10 3d
       0.08682211 0.06326598 0.016892664 0.0352616
000050 02 92 ab bd 1d 2a 1f bd a4 4a 1c bd 4f 15 08 be
       -0.08377458 -0.03885852 -0.03815712 -0.13289379
000060 90 a9 93 3d 1a 34 4d 3d d2 8a e2 3d d1 33 7d 3c
       0.07210076 0.050098516 0.11061634 0.0154542485
000070 dc cd e3 bd f1 9e ef 3d 8f 89 e0 bd 2e 45 71 3d
       -0.11123249 0.117002375 -0.10963737 0.058903866
000080 b1 1b 89 bd 95 ec c6 bc e8 c1 20 3d 77 c2 e8 bd
       -0.06694735 -0.024282733 0.039247423 -0.11365216
000090 eb db ad 3d 86 79 f0 3d d1 77 02 be 11 e2 e7 bd
       0.08489212 0.11741929 -0.12741019 -0.113224156
0000a0 d6 dc a8 3d 0b 18 f9 bd bc 84 87 bd 2b f0 91 bd
       0.08245246 -0.12162789 -0.06617114 -0.071258865
0000b0 32 0e ff bd d9 55 a4 bd 74 17 94 bd 98 6d 29 bc
       -0.124538794 -0.08024187 -0.07231036 -0.010341071
0000c0 cb ed 6d 3d 10 ad a7 bd
       0.058088105 -0.08187306
